…
2025-01-15 07:42:44.679 | DEBUG    | __main__:<module>:164 - gradient_accumulation_steps_per_gpu=32
2025-01-15 07:42:44.679 | DEBUG    | __main__:<module>:165 - Directories: train_dir='/home/v-youransun/repgpt/input/data/train', eval_dir='/home/v-youransun/repgpt/input/data/eval' model_dir='/home/v-youransun/repgpt/model' log_dir='/home/v-youransun/repgpt/output/tensorboard/nov/gpt2-training-124M-2025-01-15-07-42-42'
2025-01-15 07:42:44.679 | INFO     | __main__:<module>:166 - Loaded dataset 2.2482409477233887
2025-01-15 07:42:47.970 | INFO     | __main__:<module>:200 - OptimizedModule(
  (_orig_mod): DistributedDataParallel(
    (module): GPT2(
      (token_embedding_table): Embedding(50304, 768)
      (position_embedding_table): Embedding(1024, 768)
      (blocks): Sequential(
        (0): Transformer(
          (layer_norm1): LayerNorm((768,), eps=1e-05, elementwise_affine=True)
          (multi_headed_attention): MultiheadedAttention(
            (key): Linear(in_features=768, out_features=768, bias=False)
            (query): Linear(in_features=768, out_features=768, bias=False)
            (value): Linear(in_features=768, out_features=768, bias=False)
            (proj): Linear(in_features=768, out_features=768, bias=False)
            (dropout): Dropout(p=0.0, inplace=False)
          )
          (layer_norm2): LayerNorm((768,), eps=1e-05, elementwise_affine=True)
          (feed_forward): FeedForward(
            (linear1): Linear(in_features=768, out_features=3072, bias=False)
            (activation): GELU(approximate='none')
            (linear2): Linear(in_features=3072, out_features=768, bias=False)
            (dropout): Dropout(p=0.0, inplace=False)
          )
        )
        (1): Transformer(
          (layer_norm1): LayerNorm((768,), eps=1e-05, elementwise_affine=True)
          (multi_headed_attention): MultiheadedAttention(
            (key): Linear(in_features=768, out_features=768, bias=False)
            (query): Linear(in_features=768, out_features=768, bias=False)
            (value): Linear(in_features=768, out_features=768, bias=False)
            (proj): Linear(in_features=768, out_features=768, bias=False)
            (dropout): Dropout(p=0.0, inplace=False)
          )
          (layer_norm2): LayerNorm((768,), eps=1e-05, elementwise_affine=True)
          (feed_forward): FeedForward(
            (linear1): Linear(in_features=768, out_features=3072, bias=False)
            (activation): GELU(approximate='none')
            (linear2): Linear(in_features=3072, out_features=768, bias=False)
            (dropout): Dropout(p=0.0, inplace=False)
          )
        )
        (2): Transformer(
          (layer_norm1): LayerNorm((768,), eps=1e-05, elementwise_affine=True)
          (multi_headed_attention): MultiheadedAttention(
            (key): Linear(in_features=768, out_features=768, bias=False)
            (query): Linear(in_features=768, out_features=768, bias=False)
            (value): Linear(in_features=768, out_features=768, bias=False)
            (proj): Linear(in_features=768, out_features=768, bias=False)
            (dropout): Dropout(p=0.0, inplace=False)
          )
          (layer_norm2): LayerNorm((768,), eps=1e-05, elementwise_affine=True)
          (feed_forward): FeedForward(
            (linear1): Linear(in_features=768, out_features=3072, bias=False)
            (activation): GELU(approximate='none')
            (linear2): Linear(in_features=3072, out_features=768, bias=False)
            (dropout): Dropout(p=0.0, inplace=False)
          )
        )
        (3): Transformer(
          (layer_norm1): LayerNorm((768,), eps=1e-05, elementwise_affine=True)
          (multi_headed_attention): MultiheadedAttention(
            (key): Linear(in_features=768, out_features=768, bias=False)
            (query): Linear(in_features=768, out_features=768, bias=False)
            (value): Linear(in_features=768, out_features=768, bias=False)
            (proj): Linear(in_features=768, out_features=768, bias=False)
            (dropout): Dropout(p=0.0, inplace=False)
          )
          (layer_norm2): LayerNorm((768,), eps=1e-05, elementwise_affine=True)
          (feed_forward): FeedForward(
            (linear1): Linear(in_features=768, out_features=3072, bias=False)
            (activation): GELU(approximate='none')
            (linear2): Linear(in_features=3072, out_features=768, bias=False)
            (dropout): Dropout(p=0.0, inplace=False)
          )
        )
        (4): Transformer(
          (layer_norm1): LayerNorm((768,), eps=1e-05, elementwise_affine=True)
          (multi_headed_attention): MultiheadedAttention(
            (key): Linear(in_features=768, out_features=768, bias=False)
            (query): Linear(in_features=768, out_features=768, bias=False)
            (value): Linear(in_features=768, out_features=768, bias=False)
            (proj): Linear(in_features=768, out_features=768, bias=False)
            (dropout): Dropout(p=0.0, inplace=False)
          )
          (layer_norm2): LayerNorm((768,), eps=1e-05, elementwise_affine=True)
          (feed_forward): FeedForward(
            (linear1): Linear(in_features=768, out_features=3072, bias=False)
            (activation): GELU(approximate='none')
            (linear2): Linear(in_features=3072, out_features=768, bias=False)
            (dropout): Dropout(p=0.0, inplace=False)
          )
        )
        (5): Transformer(
          (layer_norm1): LayerNorm((768,), eps=1e-05, elementwise_affine=True)
          (multi_headed_attention): MultiheadedAttention(
            (key): Linear(in_features=768, out_features=768, bias=False)
            (query): Linear(in_features=768, out_features=768, bias=False)
            (value): Linear(in_features=768, out_features=768, bias=False)
            (proj): Linear(in_features=768, out_features=768, bias=False)
            (dropout): Dropout(p=0.0, inplace=False)
          )
          (layer_norm2): LayerNorm((768,), eps=1e-05, elementwise_affine=True)
          (feed_forward): FeedForward(
            (linear1): Linear(in_features=768, out_features=3072, bias=False)
            (activation): GELU(approximate='none')
            (linear2): Linear(in_features=3072, out_features=768, bias=False)
            (dropout): Dropout(p=0.0, inplace=False)
          )
        )
        (6): Transformer(
          (layer_norm1): LayerNorm((768,), eps=1e-05, elementwise_affine=True)
          (multi_headed_attention): MultiheadedAttention(
            (key): Linear(in_features=768, out_features=768, bias=False)
            (query): Linear(in_features=768, out_features=768, bias=False)
            (value): Linear(in_features=768, out_features=768, bias=False)
            (proj): Linear(in_features=768, out_features=768, bias=False)
            (dropout): Dropout(p=0.0, inplace=False)
          )
          (layer_norm2): LayerNorm((768,), eps=1e-05, elementwise_affine=True)
          (feed_forward): FeedForward(
            (linear1): Linear(in_features=768, out_features=3072, bias=False)
            (activation): GELU(approximate='none')
            (linear2): Linear(in_features=3072, out_features=768, bias=False)
            (dropout): Dropout(p=0.0, inplace=False)
          )
        )
        (7): Transformer(
          (layer_norm1): LayerNorm((768,), eps=1e-05, elementwise_affine=True)
          (multi_headed_attention): MultiheadedAttention(
            (key): Linear(in_features=768, out_features=768, bias=False)
            (query): Linear(in_features=768, out_features=768, bias=False)
            (value): Linear(in_features=768, out_features=768, bias=False)
            (proj): Linear(in_features=768, out_features=768, bias=False)
            (dropout): Dropout(p=0.0, inplace=False)
          )
          (layer_norm2): LayerNorm((768,), eps=1e-05, elementwise_affine=True)
          (feed_forward): FeedForward(
            (linear1): Linear(in_features=768, out_features=3072, bias=False)
            (activation): GELU(approximate='none')
            (linear2): Linear(in_features=3072, out_features=768, bias=False)
            (dropout): Dropout(p=0.0, inplace=False)
          )
        )
        (8): Transformer(
          (layer_norm1): LayerNorm((768,), eps=1e-05, elementwise_affine=True)
          (multi_headed_attention): MultiheadedAttention(
            (key): Linear(in_features=768, out_features=768, bias=False)
            (query): Linear(in_features=768, out_features=768, bias=False)
            (value): Linear(in_features=768, out_features=768, bias=False)
            (proj): Linear(in_features=768, out_features=768, bias=False)
            (dropout): Dropout(p=0.0, inplace=False)
          )
          (layer_norm2): LayerNorm((768,), eps=1e-05, elementwise_affine=True)
          (feed_forward): FeedForward(
            (linear1): Linear(in_features=768, out_features=3072, bias=False)
            (activation): GELU(approximate='none')
            (linear2): Linear(in_features=3072, out_features=768, bias=False)
            (dropout): Dropout(p=0.0, inplace=False)
          )
        )
        (9): Transformer(
          (layer_norm1): LayerNorm((768,), eps=1e-05, elementwise_affine=True)
          (multi_headed_attention): MultiheadedAttention(
            (key): Linear(in_features=768, out_features=768, bias=False)
            (query): Linear(in_features=768, out_features=768, bias=False)
            (value): Linear(in_features=768, out_features=768, bias=False)
            (proj): Linear(in_features=768, out_features=768, bias=False)
            (dropout): Dropout(p=0.0, inplace=False)
          )
          (layer_norm2): LayerNorm((768,), eps=1e-05, elementwise_affine=True)
          (feed_forward): FeedForward(
            (linear1): Linear(in_features=768, out_features=3072, bias=False)
            (activation): GELU(approximate='none')
            (linear2): Linear(in_features=3072, out_features=768, bias=False)
            (dropout): Dropout(p=0.0, inplace=False)
          )
        )
        (10): Transformer(
          (layer_norm1): LayerNorm((768,), eps=1e-05, elementwise_affine=True)
          (multi_headed_attention): MultiheadedAttention(
            (key): Linear(in_features=768, out_features=768, bias=False)
            (query): Linear(in_features=768, out_features=768, bias=False)
            (value): Linear(in_features=768, out_features=768, bias=False)
            (proj): Linear(in_features=768, out_features=768, bias=False)
            (dropout): Dropout(p=0.0, inplace=False)
          )
          (layer_norm2): LayerNorm((768,), eps=1e-05, elementwise_affine=True)
          (feed_forward): FeedForward(
            (linear1): Linear(in_features=768, out_features=3072, bias=False)
            (activation): GELU(approximate='none')
            (linear2): Linear(in_features=3072, out_features=768, bias=False)
            (dropout): Dropout(p=0.0, inplace=False)
          )
        )
        (11): Transformer(
          (layer_norm1): LayerNorm((768,), eps=1e-05, elementwise_affine=True)
          (multi_headed_attention): MultiheadedAttention(
            (key): Linear(in_features=768, out_features=768, bias=False)
            (query): Linear(in_features=768, out_features=768, bias=False)
            (value): Linear(in_features=768, out_features=768, bias=False)
            (proj): Linear(in_features=768, out_features=768, bias=False)
            (dropout): Dropout(p=0.0, inplace=False)
          )
          (layer_norm2): LayerNorm((768,), eps=1e-05, elementwise_affine=True)
          (feed_forward): FeedForward(
            (linear1): Linear(in_features=768, out_features=3072, bias=False)
            (activation): GELU(approximate='none')
            (linear2): Linear(in_features=3072, out_features=768, bias=False)
            (dropout): Dropout(p=0.0, inplace=False)
          )
        )
      )
      (layer_norm_final): LayerNorm((768,), eps=1e-05, elementwise_affine=True)
      (lm_head): Linear(in_features=768, out_features=50304, bias=False)
    )
  )
)
2025-01-15 07:42:47.970 | INFO     | __main__:<module>:203 - Training model with 123,587,328 parameters for max_steps=40,000 on total_training_tokens=20,971,520,000
2025-01-15 07:42:47.970 | INFO     | __main__:<module>:206 - Decayed parameter tensors: 74, with 124,354,560 parameters
2025-01-15 07:42:47.970 | INFO     | __main__:<module>:207 - Non-decayed parameter tensors: 25, with 19,200 parameters
…
